Pytorch_Audio_processing/cnn_net.pth (torch, 494975 bytes, 10 tensors)

conv1.0.weight f4 [16, 1, 3, 3]
0	0xbe61af5e	-0.22039554
1	0x3ddea959	0.10872144
2	0xbe9db4e4	-0.3080207
3	0x3c1980a5	0.00936905
4	0xbe8ac965	-0.27106777
5	0x3e8e4d32	0.2779327
6	0x3d3e2db8	0.04643032
7	0x3e4e0201	0.20117952
8	0xbe39d621	-0.1814809
9	0x3cc3f364	0.023919769
10	0x3d2ff061	0.042953853
11	0xbc709c4a	-0.0146857
12	0xbe30d667	-0.17269288
13	0x3e708d08	0.23491299
14	0x3b541180	0.0032359064
15	0x3e81119b	0.25208744
16	0x3ccb9a8e	0.02485397
17	0x3df059ed	0.11735902
18	0xbe90f161	-0.28309157
19	0x3ea2cbfc	0.31796253
20	0xbde027a9	-0.109450646
21	0x3dd8d605	0.10587696
22	0x3e6c5d40	0.23082447
23	0x3e9f48d5	0.31110254
24	0x3e2d1bf7	0.16905199
25	0xbcde1c1f	-0.027113019
26	0x3e477391	0.19477679
27	0xbcf485d6	-0.029848974
28	0xbe94679b	-0.28985295
29	0x3d596722	0.05307687
30	0x3d111827	0.035423424
31	0x3e6c2fc0	0.2306509
32	0x3ea52c99	0.32260588
33	0x3e8a9015	0.2706305
34	0x3d6cd8af	0.057823833
35	0xbd8312c8	-0.064000666
36	0x3d8832f0	0.066503406
37	0xbe42bd3d	-0.19017501
38	0xbdea83aa	-0.11450894
39	0x3e242d20	0.16032839
40	0x3e72b38c	0.23701304
41	0x3ea6435c	0.32473266
42	0xbcd40dee	-0.025885548
43	0xbe8155e6	-0.25260848
44	0xbdad843f	-0.084724896
45	0xbdb13ced	-0.08654199
46	0xbcaba32f	-0.020951835
47	0x3d94a8b9	0.07258744
48	0xbe745414	-0.23860198
49	0xbe123872	-0.14279345
50	0xbd552a38	-0.052042216
51	0x3e616f0b	0.22015016
52	0x3e753ef6	0.23949799
53	0x3e9fa6a0	0.31181812
54	0xbe2f8c25	-0.17143305
55	0x3ca4c49b	0.02011328
56	0x3e6c74d1	0.23091437
57	0xbe2a2e4c	-0.16619223
58	0xbe499d98	-0.19689023
59	0x3da4e58b	0.08051594
60	0x3e6f357b	0.23360245
61	0xbba564e9	-0.00504743
62	0x3c95dcbe	0.018293735
63	0xbd8917fb	-0.06694027
64	0x3e725bec	0.23667878
65	0xbe434015	-0.19067414
66	0xbe005927	-0.12534009
67	0xbea5ac8e	-0.3235821
68	0x3e6ea2dd	0.23304315
69	0x3e0b85e6	0.13625297
70	0x3b71777b	0.0036844898
71	0xbeac5753	-0.33660373
72	0xbe94f738	-0.29094863
73	0xbe1d92b3	-0.15387993
74	0xbe0f69bd	-0.1400518
75	0xbe9f205d	-0.3107938
76	0x3e45dfa4	0.19323593
77	0x3e3a6388	0.1820203
78	0x3e1ede0e	0.15514395
79	0xbde2e885	-0.11079506
80	0xbe91dcb4	-0.28488696
81	0xbe94f5b5	-0.2909371
82	0x3e6fcf71	0.23418976
83	0xbe8024aa	-0.25027972
84	0x3e2d5a1c	0.16928905
85	0xbe98f8d3	-0.29877338
86	0x3e35c273	0.17749958
87	0xbe958642	-0.29203993
88	0x3e2f72f7	0.171337
89	0xbe47acd0	-0.19499516
90	0xbea5cd86	-0.32383364
91	0x3c90a824	0.0176583
92	0x3e79d71b	0.24398462
93	0xbe5ae1d6	-0.21375212
94	0x3e9cbcfb	0.3061293
95	0x3c8b09a9	0.01697238
96	0xbddace96	-0.106839344
97	0xbdd4d43d	-0.10392044
98	0xbe5f6e77	-0.21819483
99	0xbda731f3	-0.08163824
100	0xbdb05b94	-0.08611217
101	0xbe8f01a1	-0.2793093
102	0x3e401482	0.18757823
103	0x3e8c4096	0.27393025
104	0x3e8845d4	0.26615775
105	0x3d894115	0.067018665
106	0x3d23f405	0.040027637
107	0xbdd4c54f	-0.10389196
108	0xbe465a57	-0.193704
109	0xbe474383	-0.19459347
110	0xbe9c4aac	-0.3052572
111	0xbe76949e	-0.2408013
112	0x3e6657e0	0.22494459
113	0xbe20a635	-0.15688403
114	0xbe7ce9d4	-0.24698573
115	0x3e45b156	0.1930593
116	0xbd88213e	-0.066469654
117	0xbe5016d6	-0.20321211
118	0x3df3e0fb	0.11908146
119	0x3dea8ea1	0.114529856
120	0x3e8cfb83	0.27535638
121	0x3cf06d73	0.029349064
122	0x3e4693f3	0.19392376
123	0xbdfe963d	-0.124309994
124	0x3e80aeef	0.25133464
125	0xbbafa11d	-0.0053597824
126	0x3d8b9fb2	0.06817569
127	0x3d33c93e	0.04389309
128	0xbdbf3741	-0.09336711
129	0xbe97ff8b	-0.2968715
130	0xbdaac37c	-0.08338067
131	0x3d9c0c70	0.0761956
132	0xbe71165b	-0.23543684
133	0x3c19806d	0.009368998
134	0x3ea59c49	0.323458
135	0x3e937fb7	0.28808376
136	0xbe847a1c	-0.25874412
137	0xbe5d2fd6	-0.21600279
138	0xbd0c9bde	-0.034328334
139	0x3c30608f	0.010765209
140	0x3dd49bfd	0.10381315
141	0x3e09b497	0.13447796
142	0xbd0f20ff	-0.034943577
143	0xbd18ad16	-0.037274443

conv1.0.bias f4 [16]
0	0x3eb1cf61	0.3472853
1	0x3c286af7	0.010279409
2	0x3e4a894b	0.19778936
3	0x3a980753	0.0011598862
4	0x3e9a4fe4	0.30139077
5	0xbde9a526	-0.11408453
6	0x3ea64b5d	0.32479373
7	0x3e8764e1	0.26444152
8	0xbe3276ab	-0.1742808
9	0x3e08a4fd	0.13344188
10	0x3e2ba1ac	0.16760892
11	0xbe1ea18c	-0.15491313
12	0xbe19d308	-0.15021908
13	0x3e1692af	0.14704393
14	0x3e02dda6	0.12779865
15	0x3ebd7b3e	0.3700809

conv2.0.weight f4 [32, 16, 3, 3]
0	0x3ae5fee7	0.001754728
1	0x3d2a453a	0.041569926
2	0xbd842a1b	-0.064533435
3	0xbda480d7	-0.08032387
4	0x3ce0fe47	0.027464999
5	0x3b8c4230	0.004280351
6	0x3c728d0b	0.014804135
7	0x3d92097c	0.07130715
8	0x3d05b6bb	0.03264497
9	0xbda1b8e0	-0.0789659
10	0xbd0238a7	-0.03179231
11	0xbd81fc4e	-0.063469514
12	0x3c9dafc4	0.01924885
13	0x3d83d092	0.06436266
14	0x3cdad68d	0.026713634
15	0x3d04850d	0.03235345
16	0xbd817b14	-0.063223034
17	0x3cbf4dde	0.02335256
18	0xbc20c133	-0.009811687
19	0x3c6d822d	0.014496368
20	0xbd91d686	-0.07120995
21	0x3c46a2ff	0.012123822
22	0x3d4ce317	0.050021257
23	0xbca18f23	-0.019721573
24	0xbda15c19	-0.07878894
25	0xbda79ec7	-0.08184581
26	0xbd9069b9	-0.07051415
27	0xbcdff7ea	-0.027339894
28	0x3d1760b7	0.03695747
29	0xbcedb658	-0.029017612
30	0xbc18902e	-0.009311719
31	0x3cdfd262	0.027321998
32	0xbd5029a8	-0.050820976
33	0xbcdf5a55	-0.027264753
34	0xbd0fc86b	-0.035103243
35	0xbcec6f03	-0.028861528
36	0x3d20a83a	0.039222933
37	0xbc69d407	-0.014271743
38	0x3d381098	0.0449377
39	0x3d4023cb	0.046909135
40	0xbdaa6ad2	-0.083211556
41	0x3cdc74c2	0.026911143
42	0xbca47c42	-0.020078782
43	0x3d7fedc5	0.062482614
44	0x3c95f169	0.01830359
45	0x3d8b4261	0.0679977
46	0x3d851bee	0.06499468
47	0x3c99517d	0.018715614
48	0xbd965b69	-0.07341654
49	0xbd47d48b	-0.04878668
50	0xbdb7e9b4	-0.08980122
51	0x3b8ad2d6	0.0042365594
52	0x3d3dae52	0.046308823
53	0x3d987549	0.07444245
54	0x3c44033a	0.01196366
55	0xbdade406	-0.08490758
56	0x3d7d394e	0.061822228
57	0xbd35f31b	-0.044421297
58	0xbcea283e	-0.028583642
59	0xbd3881e0	-0.045045733
60	0xbda7a0a8	-0.081849396
61	0xbda3fc11	-0.08007062
62	0x3b975c09	0.0046191257
63	0x3a914d89	0.0011085729
64	0xbbd3666e	-0.0064514196
65	0x3d48cf6f	0.04902595
66	0xbdb2af9e	-0.087249026
67	0xbda498c9	-0.08036954
68	0xbd8fa838	-0.07014507
69	0xbce30676	-0.027713042
70	0xbcfca46c	-0.030840121
71	0x3d6a079f	0.057136174
72	0xbd9c7ead	-0.07641349
73	0xbd551c8e	-0.052029185
74	0x3b36c0a3	0.0027885817
75	0xbcd752e5	-0.026284644
76	0xbcf46787	-0.029834522
77	0x3d303975	0.043023545
78	0xbd0fdf2b	-0.03512494
79	0xbd4d0ebe	-0.050062887
80	0xbd754cd9	-0.05988774
81	0xbd737c64	-0.0594448
82	0x3cc31ec3	0.02381838
83	0xbcf227e7	-0.029560043
84	0xbd6d612d	-0.057954002
85	0xbc99ba9f	-0.018765746
86	0xbd20c810	-0.039253294
87	0xbd3f1415	-0.04665001
88	0xbc18401c	-0.009292629
89	0xbd5ac824	-0.053413525
90	0xbd228e51	-0.039686505
91	0x3cf0a5f2	0.029376004
92	0xbb539fa7	-0.0032291205
93	0x3d317c43	0.043331396
94	0xbcb613b4	-0.022226192
95	0xbd9bf182	-0.07614423
96	0xbd172c1c	-0.0369073
97	0x3d84e458	0.064888656
98	0xbd32b068	-0.043625265
99	0x3c89ae22	0.016806666
100	0xbdb2f27f	-0.08737659
101	0x3d4edb7c	0.050502285
102	0x3c4e7ae9	0.012602546
103	0xbd27eb23	-0.04099573
104	0xbd94bd87	-0.07262712
105	0xbd7c7402	-0.06163407
106	0x3c5a9f8a	0.013343701
107	0xbcb7d45a	-0.022440124
108	0xbd84b4a0	-0.06479764
109	0xbb01655d	-0.0019744255
110	0x3d6c32f7	0.05766579
111	0xbd9c9860	-0.07646251
112	0xbd033503	-0.032032978
113	0xbcd62599	-0.026140975
114	0xbd5f9a51	-0.054590527
115	0x3d195c06	0.037441276
116	0xbd821611	-0.06351865
117	0xbca3a66d	-0.019976819
118	0xbb969c24	-0.00459625
119	0x3d395952	0.045251198
120	0x3bc0141c	0.005861772
121	0xbd7dc6d2	-0.061957188
122	0x3ce52cfb	0.02797555
123	0xbd9f1211	-0.07767118
124	0xbd47b940	-0.048760653
125	0xbd3ea1b0	-0.046540916
126	0x3bb05e46	0.005382332
127	0xbd9db018	-0.07699603
128	0xbcc78623	-0.024355954
129	0xbcf513e7	-0.029916717
130	0xbda91ecd	-0.08257828
131	0x3cf707d4	0.0301551
132	0xbd9e432e	-0.07727657
133	0x3d6347bb	0.05548833
134	0x3d8e9426	0.06961851
135	0x3d518758	0.051154464
136	0xbd02f147	-0.03196838
137	0xbd6b8de4	-0.057508364
138	0xbb2bb5e8	-0.0026200954
139	0x3dac869e	0.08424114
140	0x3b9e65f5	0.0048339316
141	0xbd85a2aa	-0.06525166
142	0x3d5a3280	0.053270817
143	0xbdb8f8e8	-0.0903185
144	0xbdb0ec5a	-0.086388305
145	0x3b19c4ff	0.0023463366
146	0xbda5c8d0	-0.080949426
147	0xbd9d8e7f	-0.076931946
148	0xbd863467	-0.06552964
149	0xbd4d974d	-0.05019312
150	0xbd4f2f63	-0.0505823
151	0x3d3bd2d9	0.045855377
152	0x3d6d894b	0.05799226
153	0xbd29f2fa	-0.041491486
154	0xbb3c1590	-0.0028699376
155	0xbd1366ba	-0.03598664
156	0xbd36ee1e	-0.04466068
157	0x3d2ef892	0.042717524
158	0xbd3c1798	-0.04592094
159	0x3b3ca84d	0.0028786839
160	0xbc77edd9	-0.015132391
161	0xbbb09671	-0.0053890278
162	0x3d175a0f	0.03695112
163	0xbccfb7de	-0.02535623
164	0x3b858893	0.004075119
165	0xbd92a501	-0.07160378
166	0x3c70d18c	0.014698397
167	0xbc5b9177	-0.013401381
168	0x3c5238d6	0.012830934
169	0x3c3cdd8a	0.011527428
170	0x3cd6709e	0.026176747
171	0x3cf389d6	0.029728811
172	0xbda00bc9	-0.07814748
173	0x3d7f0e07	0.062269237
174	0xbd5a96d0	-0.053366482
175	0xbda19e87	-0.07891565
176	0xbd9896b0	-0.07450616
177	0x3d8e0ebb	0.06936403
178	0x3dae2a1d	0.08504126
179	0x3d2a0459	0.041508052
180	0x3d4f513b	0.050614577
181	0x3d86228d	0.06549559
182	0x3c9bee3f	0.019034503
183	0xbb8dccad	-0.004327378
184	0xbda34518	-0.07972163
185	0x3d68d1c6	0.05684068
186	0x3c989f69	0.0186307
187	0x3d808160	0.06274676
188	0x3c36f9b7	0.011167935
189	0x3d88a736	0.06672518
190	0xbd60ba4c	-0.054865167
191	0x3d9117ec	0.07084641
192	0xbb1b6ad7	-0.0023714805
193	0x3d4f38fa	0.050591446
194	0xbd33ca6f	-0.043894228
195	0xbcbb5a00	-0.022870064
196	0x3d5e6fd8	0.05430588
197	0xbcdfa91c	-0.027302317
198	0x3d7ed465	0.062214274
199	0xbd8ca254	-0.06866899
200	0x3c8c75bc	0.017145984
201	0xbd9e0d63	-0.07717397
202	0xbd6e9fe8	-0.058257967
203	0x3d5fdc6e	0.054653578
204	0x3d7e85ee	0.062139444
205	0x3d934e3c	0.071926564
206	0x3c7a3e38	0.015273623
207	0x3d83a162	0.06427266
208	0x3d965cca	0.07341917
209	0x3d11aa10	0.035562575
210	0x3c581264	0.013187978
211	0xbd5bd0a6	-0.05366578
212	0xbc1a9a75	-0.0094362395
213	0x3c6bdc58	0.014395796
214	0x3d43e640	0.047827005
215	0x3d8ff6aa	0.07029469
216	0xbda9b4b0	-0.082864165
217	0x3ca18b57	0.019719763
218	0x3b736f93	0.003714536
219	0x3ca8df00	0.020614147
220	0xbd194430	-0.037418544
221	0xbb403be3	-0.002933257
222	0x3d8bc197	0.06824034
223	0xbd682632	-0.05667705
224	0xbd8ee6e1	-0.069776304
225	0x3cf9b6b7	0.030482633
226	0x3cc93ed5	0.024566093
227	0xbd1a1e53	-0.037626576
228	0xbd941a72	-0.072316065
229	0xbcae04e5	-0.021242568
230	0x3cfe78f6	0.031063538
231	0xbd8137bc	-0.063094586
232	0x3bc9b2be	0.006155341
233	0xbd35b3ae	-0.04436081
234	0x3d5c0256	0.053713165
235	0x3d52e897	0.051491346
236	0xbd893dfe	-0.06701277
237	0x3d586a9a	0.05283604
238	0x3d9d87a2	0.076918855
239	0x3d3232db	0.04350553
240	0xbd0e0189	-0.034669433
241	0xbd0a9add	-0.033839095
242	0x3c2dfe00	0.01061964
243	0x3ca21803	0.01978684
244	0xbda500b9	-0.080567785
245	0xbd814e93	-0.06313815
246	0x3cb760d1	0.022385033
247	0x3b5e6a36	0.0033937818
248	0xbcae3e33	-0.021269893
249	0xbac51592	-0.0015036336
250	0xbda45160	-0.080233335
251	0x3d8e8172	0.069582835
252	0xbd214f0a	-0.03938202
253	0x3d5cb597	0.053884115
254	0xbd20d5c7	-0.039266374
255	0x3d85ddf8	0.06536478

conv2.0.bias f4 [32]
0	0xbd1fa97d	-0.038979996
1	0xbc9c1858	-0.019054577
2	0xbdb26dc5	-0.08712343
3	0xbd45c397	-0.048282232
4	0xbcabb4c8	-0.020960227
5	0xbdb3cc4d	-0.08779202
6	0x3cdf7a52	0.027280007
7	0xbd4633c6	-0.04838922
8	0xbd21d71f	-0.039511796
9	0xbd7818fb	-0.0605707
10	0xbca218b5	-0.019787172
11	0xbd272838	-0.04080984
12	0x3c4600e4	0.012085173
13	0xbd82a605	-0.06379322
14	0xbcdcc343	-0.026948577
15	0x3da7159a	0.08158417
16	0xbcbc390f	-0.022976426
17	0xbd08a67d	-0.0333619
18	0xbdb7341c	-0.08945486
19	0xbc0336af	-0.008008643
20	0xbc0cf8f4	-0.008604277
21	0xbb2a66c2	-0.002600119
22	0xbc93012c	-0.017944895
23	0xbd091f81	-0.03347731
24	0xbcdef125	-0.027214596
25	0xbcc63cab	-0.02419885
26	0x3b81740a	0.0039506005
27	0xbcc400d2	-0.023926172
28	0xbdaa3b69	-0.08312113
29	0x3c592c3e	0.013255177
30	0xbdaf3b16	-0.085561916
31	0xbd7f24af	-0.062290844

conv3.0.weight f4 [64, 32, 3, 3]
0	0xbc65ba4e	-0.014021469
1	0xbd5070b6	-0.05088874
2	0xbd363161	-0.044480685
3	0xbbfcaf9c	-0.007711364
4	0x3d486d12	0.048932143
5	0xbb976d90	-0.004621215
6	0x3cccb26d	0.024987424
7	0xbd5561e6	-0.052095316
8	0xbb314a5b	-0.0027052376
9	0xb9e1724c	-0.00043000502
10	0xbcb3c2fa	-0.021943558
11	0xbc15d6d0	-0.009145454
12	0xbd8a3277	-0.06747907
13	0xbcfab127	-0.030602051
14	0xbd0a8878	-0.033821553
15	0xbc7e50b2	-0.015522169
16	0x3c9d1d1d	0.019178921
17	0xba30dbd2	-0.0006746623
18	0xbd0bc827	-0.034126427
19	0xbcaa79e9	-0.020810084
20	0xbcf7f08d	-0.03026607
21	0xbd18f9d3	-0.037347626
22	0x3d4d5a60	0.050135016
23	0xbbb91d5d	-0.0056492523
24	0x3d4b0bd1	0.049571816
25	0x3c7b657c	0.01534402
26	0xbd48f3d7	-0.04906067
27	0xbb07a540	-0.0020697862
28	0x3d4043be	0.046939604
29	0x3c9c926d	0.01911279
30	0x3c4a68cf	0.01235409
31	0xbd266b57	-0.04062971
32	0xbc94d313	-0.018167054
33	0xbc9b5ea5	-0.018966028
34	0x3c8207f6	0.015872937
35	0xbd20a473	-0.03921933
36	0xbc1cd685	-0.00957263
37	0x3cf5493a	0.029942144
38	0x3d445be8	0.04793921
39	0x3cbb6331	0.022874447
40	0x3bf93cc1	0.0076061194
41	0xbbb42a6b	-0.0054982207
42	0xbc716f51	-0.014736013
43	0x3d0c4230	0.03424281
44	0x3b8e2892	0.0043383325
45	0xbac81bfb	-0.0015267128
46	0x3be6cf8b	0.007043784
47	0xbb587a4c	-0.003303188
48	0x3bad3e10	0.0052869394
49	0xbca667fc	-0.020313255
50	0x3bfbab0c	0.0076803025
51	0xbd32b879	-0.043632958
52	0xbd56b91b	-0.052422624
53	0x3d3cca31	0.046091262
54	0x3cdafaff	0.026731012
55	0xbd43c021	-0.04779065
56	0x3d0aa9cc	0.033853337
57	0x3d2278b5	0.039665896
58	0xbd124542	-0.03571058
59	0x3d604f3d	0.054763068
60	0x3d48549a	0.048908807
61	0xbd880059	-0.06640691
62	0xbc54c25b	-0.012985791
63	0xbd1b2e9a	-0.03788624
64	0xbd12ff5a	-0.035888053
65	0x3b2ffc5d	0.00268533
66	0x3d13d5b0	0.03609246
67	0xbd513b95	-0.051082212
68	0xbb5b038a	-0.0033418857
69	0xbd6d5d24	-0.057950154
70	0x3c8154b8	0.015787467
71	0xbd3bd2dd	-0.04585539
72	0xbd0b862b	-0.0340635
73	0x3bf5c0bc	0.0074997824
74	0x3b0143ad	0.0019724176
75	0xbd176621	-0.036962632
76	0x3c8317a6	0.016002487
77	0x3d26c53d	0.040715445
78	0x3ab3f3b4	0.0013729245
79	0x3cce67ae	0.025195923
80	0xbd0d82b7	-0.034548488
81	0x3c6de474	0.0145197995
82	0x3b4c5c97	0.0031183118
83	0xbc4a93ea	-0.012364367
84	0xbc7c227f	-0.015389084
85	0xbd316c98	-0.043316454
86	0x3d817597	0.063212566
87	0x3d229285	0.039690513
88	0xbce9dcb6	-0.028547626
89	0xbd69d8f6	-0.057091676
90	0xbd30789d	-0.043083776
91	0xbd073fb2	-0.03301973
92	0xbb4aac08	-0.0030925293
93	0xbc634e81	-0.013873697
94	0xbb211055	-0.0024576385
95	0x3c37c805	0.011217122
96	0xbd6b9788	-0.05751756
97	0xbd0e6ed5	-0.034773666
98	0x3d0416a3	0.03224815
99	0x3d17e3ff	0.03708267
100	0xbc3ab6fd	-0.011396167
101	0xbc761ff0	-0.015022263
102	0xbc7b199c	-0.01532593
103	0x3d0b773a	0.03404925
104	0xbd212a19	-0.039346788
105	0x3d23e5f4	0.040014222
106	0x3d03160b	0.032003444
107	0x3d5cde5e	0.053923003
108	0x3cbe9051	0.023262175
109	0x3d48586b	0.048912447
110	0xbd674508	-0.056462318
111	0xbbdca8aa	-0.0067339735
112	0xbce080a9	-0.0274051
113	0xbc3fd803	-0.011709216
114	0xbd2bbe5e	-0.041929595
115	0x3c8118a6	0.015758824
116	0xbd59d3ce	-0.05318051
117	0xbb894116	-0.004188667
118	0x3d65a973	0.056069802
119	0x3d61ada3	0.055097234
120	0x3c3c0412	0.01147558
121	0xbcd8a560	-0.026446044
122	0x3c6fefc7	0.01464457
123	0xbc83ac4e	-0.016073372
124	0xbbd307bf	-0.0064401324
125	0xbd0bef84	-0.034163967
126	0xbc418c4e	-0.011813236
127	0x3cf30491	0.029665263
128	0x3d334968	0.043771178
129	0xbc1452fb	-0.009052987
130	0xbca87c1f	-0.020566998
131	0x3d4373d7	0.047717895
132	0xbd103227	-0.03520408
133	0xbc00e5d3	-0.007867294
134	0xbc8903e3	-0.016725486
135	0x3cd2a471	0.025713177
136	0xbb9ea94f	-0.0048419605
137	0x3c57733b	0.013150032
138	0x3d6e66d3	0.05820353
139	0xbd03d47d	-0.032185066
140	0xbccde722	-0.025134627
141	0x3d32f44f	0.043690022
142	0x3cb9281e	0.022602137
143	0xbd2ad7f0	-0.04170984
144	0x3d1b0b7a	0.03785274
145	0x3c84fe5d	0.016234571
146	0x3d419b49	0.047267232
147	0xbcb7e0e0	-0.022446096
148	0x3cb8c1b5	0.022553304
149	0x3d8d307c	0.06894013
150	0x3d0aa15a	0.033845283
151	0x3d45c827	0.048286583
152	0xbd0276d7	-0.031851616
153	0xbd60d233	-0.05488796
154	0xbd5456a0	-0.051840425
155	0xbb03ab94	-0.0020091282
156	0xbd0989c0	-0.033578634
157	0x3d515a93	0.05111177
158	0x3d71b05c	0.05900608
159	0xbd2e5a8c	-0.04256682
160	0x3cff3582	0.031153444
161	0x3d4b5bf0	0.049648225
162	0xb9227ed7	-0.00015496775
163	0xbd0c3ea2	-0.03423942
164	0x3c5a22d5	0.013313969
165	0x3d32a248	0.043611795
166	0x3d01c7c2	0.031684645
167	0x3d6ab5b7	0.057302203
168	0xbc64d545	-0.013966863
169	0xbd3eb7c0	-0.046561956
170	0x3d4928b8	0.049111098
171	0x3d20c176	0.039247
172	0x3d5c6a31	0.05381221
173	0x3d5eb89d	0.05437528
174	0xbc6fc47f	-0.014634251
175	0x3d1dea6f	0.03855365
176	0xbcc87ce5	-0.024473617
177	0xbd7935ec	-0.06084244
178	0xbcd8ee8e	-0.02648094
179	0xbd1f1d43	-0.038846266
180	0x3d3794d1	0.044819657
181	0x3c3dcc94	0.01158442
182	0xb8df564a	-0.00010649541
183	0x3d5e4492	0.054264612
184	0x3d32738b	0.04356722
185	0x3d7f4b3b	0.062327605
186	0x3ce6da4e	0.028180268
187	0xbd4162c6	-0.04721334
188	0xbd03164b	-0.032003682
189	0x3c665201	0.014057637
190	0xbc010d90	-0.007876769
191	0xbd62b9d6	-0.05535301
192	0xbd3d621d	-0.046236146
193	0x3cf15840	0.029461026
194	0x3d92b235	0.071628965
195	0x3cf045af	0.029330103
196	0x3d4ea924	0.050454274
197	0xbd66c4c8	-0.05634001
198	0xbb19951b	-0.002343482
199	0x3d8abafb	0.06773945
200	0xbd00bb74	-0.03142877
201	0x3cc4f13c	0.02404081
202	0xbd443777	-0.047904458
203	0xbcc4f98b	-0.024044773
204	0x3d2b07c4	0.041755453
205	0xbd287b1b	-0.041133028
206	0xbd0a4ba7	-0.033763554
207	0x3d427c2c	0.0474817
208	0x3ce95b3f	0.028485892
209	0x3c99b461	0.01876277
210	0xbcb76fd0	-0.022392184
211	0xba6f25a0	-0.0009122733
212	0xbc2fa089	-0.010719427
213	0x3c4ae4ae	0.012383623
214	0xbd0ba30d	-0.034091044
215	0xbd8c547e	-0.06852053
216	0x3d66678f	0.056251105
217	0x3ca6dba8	0.020368412
218	0xbd440362	-0.04785479
219	0x3d0dcb1f	0.03461754
220	0x3be70c14	0.0070510004
221	0xbd7680a0	-0.06018126
222	0xbc3f8d34	-0.01169138
223	0xbcdcba80	-0.026944399
224	0xbc326771	-0.01088892
225	0xbc4dc4ec	-0.012559157
226	0xbd1cc755	-0.038276035
227	0x3d0437a6	0.032279633
228	0x3c6d5e9a	0.014487887
229	0x3ce2ab62	0.027669612
230	0x3cc621d1	0.024186047
231	0xbc1b866e	-0.0094925
232	0xbc047992	-0.008085625
233	0xbd57b8f2	-0.052666612
234	0xbba26091	-0.0049553593
235	0x3c644845	0.013933246
236	0xbc317425	-0.010830914
237	0xbd35fcb6	-0.044430457
238	0x3c9b6479	0.018968808
239	0x3d1232e3	0.03569306
240	0xbcb485e3	-0.022036498
241	0xbd29036e	-0.041263036
242	0x3cfc18ea	0.030773599
243	0xbc83e42a	-0.016100008
244	0xbcf236c5	-0.029567132
245	0x3cb066b2	0.021533344
246	0x3d2aa08e	0.041657023
247	0x3d45a096	0.04824885
248	0x3d6a01bc	0.05713056
249	0xbd0f40c8	-0.03497389
250	0x3d17e925	0.03708758
251	0x3c980be9	0.018560367
252	0x3c130b87	0.008974916
253	0xbca02882	-0.019550566
254	0xbcc0ea3d	-0.023549194
255	0x3d0bdf9b	0.034148794

conv3.0.bias f4 [64]
0	0xbd445360	-0.047931075
1	0x3d06f89e	0.032951944
2	0xbd8809b0	-0.06642473
3	0xbcacc9df	-0.021092353
4	0x3c92ec93	0.017935073
5	0x3d2c0555	0.041997273
6	0xbd5d0ec3	-0.053969156
7	0xbdef7cbf	-0.11693715
8	0xbc72bd15	-0.0148155885
9	0xbd8b71b3	-0.06808796
10	0xbdb5bd2b	-0.088739716
11	0x3d97888d	0.07399092
12	0x3cbd39a8	0.023098782
13	0xbceba8ae	-0.028766956
14	0x3dc534e6	0.0962923
15	0xbc5794e2	-0.013158055
16	0xbce82344	-0.028337128
17	0xbd2a059f	-0.041509267
18	0x3db390c3	0.087678455
19	0xbd2448ed	-0.04010861
20	0xbd8f7e98	-0.07006568
21	0xbd740b44	-0.059581056
22	0xbd88172d	-0.066450454
23	0xbb947b21	-0.0045312797
24	0xbdac8c2a	-0.08425172
25	0xbc7ba4e2	-0.015359135
26	0x3c85c019	0.01632695
27	0xbd11252f	-0.03543585
28	0xbda1fb11	-0.07909215
29	0xbc3ed0ff	-0.011646508
30	0xbcd67842	-0.02618039
31	0xbce3fe3e	-0.027831193
32	0xbde1d773	-0.11027422
33	0xbda3f420	-0.080055475
34	0x3d4ad48b	0.049519103
35	0xbd8cb459	-0.06870336
36	0xbc1be538	-0.009515099
37	0xbd666432	-0.056247897
38	0xbd817ca4	-0.063226014
39	0xbd95a046	-0.0730596
40	0xbd8d46fa	-0.06898303
41	0xbcf24983	-0.029576069
42	0xbda9192a	-0.08256753
43	0xbcd03233	-0.025414562
44	0x3db0e264	0.086369306
45	0xbce773bb	-0.028253427
46	0xbcc27315	-0.023736516
47	0xbd9681b7	-0.0734896
48	0x3c3cc38f	0.011521234
49	0xbd8d698a	-0.069048956
50	0xbd41590c	-0.047204062
51	0xbc5ae613	-0.013360518
52	0xbd4374b6	-0.047718726
53	0xbc69eeaf	-0.014278098
54	0xbdd54357	-0.10413235
55	0xbd78fa39	-0.060785506
56	0xbd863d73	-0.06554689
57	0x3c8b9254	0.017037548
58	0xbd801caa	-0.06255467
59	0xbcdc6391	-0.026902946
60	0xbd8bb2cb	-0.068212114
61	0x3be6b537	0.0070406455
62	0xbd99edd6	-0.07516067
63	0xbd4eacad	-0.050457645

conv4.0.weight f4 [128, 64, 3, 3]
0	0x3c91296e	0.01771995
1	0xbc7c8529	-0.015412607
2	0xbb74238a	-0.0037252628
3	0x3b1061f3	0.0022031039
4	0xbc5ae486	-0.013360148
5	0xbd3263a4	-0.043552056
6	0x3ca80036	0.020507913
7	0xbcbff049	-0.023430007
8	0xbc657624	-0.014005218
9	0xbbbfca7e	-0.0058529964
10	0x3c0703c7	0.008240647
11	0x3ca47355	0.020074526
12	0x3bad0d87	0.0052811536
13	0x3b0876a6	0.0020822673
14	0x3ccd5440	0.025064588
15	0x3c72f53e	0.014828978
16	0x3cfa9cae	0.030592289
17	0x3ba56af8	0.005048152
18	0x3c0bfcf5	0.008544196
19	0xbcaa21ec	-0.020768128
20	0x3ccaf7c7	0.024776353
21	0xbc0220a0	-0.007942349
22	0x3cbff5fd	0.023432726
23	0xbc4f8bf5	-0.012667646
24	0xbc30d4a7	-0.010792888
25	0x3c262f29	0.01014308
26	0xbbd9415a	-0.006630105
27	0xbd059c88	-0.032619983
28	0x3ced57d0	0.028972536
29	0x3d08757e	0.033315174
30	0xbc0624fa	-0.008187527
31	0x3cdde906	0.027088653
32	0x3becdf1e	0.007228746
33	0x3c71e453	0.014763909
34	0xbc6ac30b	-0.014328728
35	0x3c86f068	0.016472057
36	0xbc8ce491	-0.017198833
37	0xbcf25744	-0.029582627
38	0xbd002b2c	-0.031291172
39	0x3cf702a6	0.03015263
40	0x3c0e3773	0.008680212
41	0xbca9f630	-0.020747274
42	0x3cc230c3	0.023704892
43	0x3d091545	0.03346755
44	0xbd1a918b	-0.037736457
45	0x3c97c52d	0.018526638
46	0xbb2fab1a	-0.0026804865
47	0xbb812246	-0.0039408533
48	0xbc9dcfdd	-0.019264156
49	0x3c700f71	0.014652119
50	0x3d153176	0.036424123
51	0x3bd75486	0.0065713553
52	0x3d1952c5	0.03743245
53	0xbc448bb3	-0.0119961975
54	0xbbcade37	-0.006191041
55	0x3d04385d	0.032280315
56	0x3bc88f70	0.0061206147
57	0x3cc24289	0.023713367
58	0xbd21d625	-0.039510865
59	0xbc0f5982	-0.008749368
60	0x3cb0fff1	0.021606417
61	0xbc3f74fe	-0.011685608
62	0xbca22739	-0.019794093
63	0xbd0d4d1b	-0.03449736
64	0x3d09fe88	0.033690006
65	0xbb8c8d58	-0.0042893104
66	0xbcf8fe3a	-0.030394662
67	0xbc735745	-0.01485235
68	0xbcaa3cf8	-0.020781025
69	0x3cdb91bb	0.026802888
70	0xbd20117b	-0.03907917
71	0x3cdb77a2	0.026790444
72	0xbc15b140	-0.009136498
73	0xbce3b799	-0.027797507
74	0xbd2619f9	-0.040552113
75	0x3c8bd6d6	0.017070215
76	0x3cefa188	0.029251829
77	0xbbab0840	-0.0052194893
78	0xbcbbe02f	-0.022934048
79	0xbcaeda54	-0.021344341
80	0xbc86251e	-0.01637512
81	0xbc82b28d	-0.01595428
82	0xbbf6671f	-0.007519617
83	0xbd3c3b02	-0.04595471
84	0x3c270989	0.010195144
85	0x3c141903	0.009039166
86	0xbc7e4415	-0.015519162
87	0xbc0992bb	-0.0083968
88	0xbc8d092f	-0.017216293
89	0x37cdc460	2.4529349e-05
90	0xbd16b4cd	-0.03679352
91	0x3cacb844	0.021083958
92	0xbc99216b	-0.018692693
93	0xbce5126d	-0.027962888
94	0x3d1b81b6	0.0379655
95	0xbd09433b	-0.03351138
96	0x3d1412f1	0.036150876
97	0xbc8008d2	-0.015629206
98	0x3c59b01e	0.0132866185
99	0xbba3123c	-0.004976539
100	0xbcb3e891	-0.021961482
101	0xbd0e67e3	-0.034767043
102	0xbb2e7f43	-0.0026626147
103	0xbc879365	-0.016549775
104	0xbd064c11	-0.032787386
105	0xbc7aee35	-0.015315582
106	0xbc96d5fb	-0.01841258
107	0xbcda8e9f	-0.026679335
108	0xbd0815d4	-0.033223942
109	0x3cd58bec	0.026067697
110	0xb9d75afb	-0.0004107578
111	0x3c998a68	0.018742755
112	0x3cc4153c	0.023935907
113	0x3d0878bc	0.033318266
114	0xbd41e909	-0.04734138
115	0xbca44446	-0.020052087
116	0xbd008ed3	-0.031386208
117	0x3d30e5b0	0.043187797
118	0xb9fe052c	-0.0004845051
119	0x3ce65485	0.028116474
120	0xbcfd657e	-0.030932184
121	0xbd424b4b	-0.047435086
122	0x3ce90ac0	0.028447509
123	0xbbec44c0	-0.007210344
124	0xbcda93e0	-0.02668184
125	0x3d116f75	0.035506684
126	0x3c955394	0.01822833
127	0xbcb023d0	-0.021501452
128	0x3c75d6b9	0.015004807
129	0xbd335db7	-0.043790545
130	0xbbba9f1e	-0.005695238
131	0x3cbcdaab	0.023053488
132	0x3cb8a1e3	0.022538131
133	0xbd392253	-0.04519875
134	0xbd0f8d41	-0.03504682
135	0x3cc0bf33	0.02352867
136	0x3d147716	0.03624638
137	0x3ce7c65a	0.028292824
138	0xbd13d634	-0.036092952
139	0xbccd313a	-0.025047887
140	0x3d130aff	0.03589916
141	0xb940ffb8	-0.0001840581
142	0xbbcbbfdf	-0.006217941
143	0xbd0eb232	-0.03483791
144	0x3d229744	0.03969504
145	0xbcfef871	-0.031124325
146	0xbd326ea3	-0.043562543
147	0x3d0c7f5e	0.034301154
148	0x3ca46a8d	0.020070339
149	0x3b3ddb45	0.0028969806
150	0xbbb6edb6	-0.0055825366
151	0xbd2d7e6f	-0.042356905
152	0x3c0dc744	0.008653466
153	0xbc55c6eb	-0.013047914
154	0x3b79bcbc	0.003810688
155	0xbd3a7eec	-0.0455312
156	0x3ce6b249	0.028161185
157	0x3d0f2f52	0.034957238
158	0xbd553317	-0.052050676
159	0x3a46fdeb	0.00075909373
160	0x3caa81de	0.020813879
161	0xbbb9ae58	-0.0056665353
162	0xbce9e78c	-0.028552793
163	0xbd09fb02	-0.033686645
164	0xbcffa330	-0.031205744
165	0x3b6b5006	0.0035905852
166	0xbb2f1dc6	-0.0026720627
167	0xbd0db3b5	-0.03459521
168	0x3cf6cd87	0.0301273
169	0x3d3a99c8	0.045556813
170	0x3c49a4de	0.012307374
171	0xbd034c86	-0.0320554
172	0x39fb38fe	0.00047916913
173	0xbcea5a55	-0.028607527
174	0x3cc35d11	0.023848088
175	0xbba7af0b	-0.0051173023
176	0x3c8c416c	0.01712104
177	0x3c60547f	0.01369202
178	0xbc688394	-0.014191527
179	0x3c368e93	0.011142391
180	0x3d0be2d9	0.034151886
181	0xbc8d8145	-0.017273555
182	0xbbfe7d1e	-0.00776638
183	0xbcc04c79	-0.023473965
184	0xbb315672	-0.0027059582
185	0xbcb3225f	-0.021866975
186	0xbce94f38	-0.028480157
187	0xbcd04c95	-0.025427142
188	0x3d0f00af	0.03491276
189	0xbc5f5550	-0.01363118
190	0xbc4ef720	-0.012632161
191	0xbc777d59	-0.015105569
192	0xbd0f4f76	-0.03498789
193	0xbbc743ac	-0.006081065
194	0xbd22ed30	-0.03977698
195	0x3c1328ea	0.008981923
196	0x3c6fe7ca	0.014642665
197	0x3ca3e65e	0.020007309
198	0x3ba77e2c	0.0051114764
199	0xbca70606	-0.020388614
200	0x3b8ad808	0.0042371787
201	0xbc22c60e	-0.009934915
202	0x3d12d58c	0.035848185
203	0x3c326c74	0.010890115
204	0x3cf15885	0.029461155
205	0x3d1acf4b	0.037795346
206	0xbcfff0bf	-0.031242726
207	0xbcc6f37c	-0.024286024
208	0xbd01c499	-0.03168163
209	0x3c64d8aa	0.013967672
210	0xbd303815	-0.043022234
211	0xbd0fa4a4	-0.035069123
212	0xbbff9134	-0.007799292
213	0x3ab0fe6d	0.0013503559
214	0x3b276fb7	0.0025548765
215	0x3d22a8ab	0.039711636
216	0xbce65af9	-0.028119551
217	0x3c42b515	0.011883994
218	0xbcabfef4	-0.020995595
219	0xbcac8cb0	-0.021063179
220	0x3c9f7e41	0.019469382
221	0x3be073b4	0.0068497304
222	0xbcdbb306	-0.026818763
223	0xbd1356c7	-0.03597143
224	0x3d1e70c3	0.038681757
225	0xbb2f53c4	-0.002675281
226	0x3bd930ed	0.006628147
227	0xbd3ebc7e	-0.04656648
228	0xbcc21b1f	-0.023694573
229	0xbbe87a0b	-0.007094627
230	0xbc9c38b5	-0.019070009
231	0xbc6f487f	-0.014604687
232	0xbd0f6c42	-0.035015352
233	0xbc8c4420	-0.017122328
234	0xbc95fce2	-0.01830906
235	0xbc8a57bb	-0.016887536
236	0xbbcbdeef	-0.006221644
237	0xbccf6b36	-0.025319677
238	0x3cc1e4fa	0.023668755
239	0x3c4ddaa2	0.012564333
240	0x3ca4f55f	0.020136533
241	0x3d079d76	0.03310915
242	0xbce8774f	-0.028377203
243	0xbcc087d4	-0.023502268
244	0x3c4b5939	0.012411409
245	0xbcb918aa	-0.022594769
246	0x3c86c768	0.016452506
247	0x3d18f5d6	0.037343822
248	0x3cb39b10	0.021924525
249	0xbc2ada50	-0.010428026
250	0x3c09c13c	0.008407887
251	0xbd110b1c	-0.035410985
252	0x3c2c0697	0.010499618
253	0x3d06d0f6	0.032914124
254	0xbcdfa7dd	-0.027301723
255	0xbc94b94d	-0.018154765

conv4.0.bias f4 [128]
0	0xbba87b47	-0.005141649
1	0x3ca4b148	0.020104066
2	0xbccf2c8b	-0.025289794
3	0x3ddca97a	0.107745126
4	0xbd29671f	-0.04135811
5	0xbdb234ea	-0.08701499
6	0x3ddbd53d	0.10734031
7	0x3d85903c	0.06521651
8	0xbd1af054	-0.03782685
9	0xbd083ee9	-0.03326312
10	0x3c2eee4d	0.0106769325
11	0x3dbde4f3	0.09272184
12	0xbb0613db	-0.0020458612
13	0xbd799899	-0.060936544
14	0x3d0342b5	0.03204604
15	0x3d84bfe8	0.06481916
16	0xbc00f6fe	-0.0078713875
17	0xbc8d7c45	-0.01727117
18	0xbccb7382	-0.024835352
19	0x3dc9ee94	0.09859958
20	0x3db9e01c	0.090759486
21	0xbd7d4aed	-0.061839033
22	0xbdadd04e	-0.084869966
23	0xbd1b77ef	-0.037956174
24	0x3d478e34	0.0487196
25	0xbd46da5a	-0.04854808
26	0xbcf5f117	-0.030022187
27	0xbc2402b2	-0.010010408
28	0xbcc174bf	-0.02361524
29	0x3db958c6	0.09050135
30	0xbd615fda	-0.05502305
31	0xbd697e76	-0.05700537
32	0x3da46707	0.080274634
33	0x3d1e947f	0.038715836
34	0xbd8d4bfb	-0.06899258
35	0x3d8a7a85	0.0676165
36	0xbd225767	-0.039634135
37	0xbdb98741	-0.09059001
38	0xbdbe7707	-0.093000464
39	0xbc93f363	-0.018060392
40	0xbcd28526	-0.025698256
41	0x3da3b734	0.079939276
42	0xbd871e82	-0.06597616
43	0xbcadb898	-0.021206185
44	0xbd054694	-0.03253801
45	0xbd4cdf3c	-0.05001758
46	0xbca0ee76	-0.019644957
47	0xbc9f900d	-0.019477868
48	0xbd962d0c	-0.07332811
49	0xbc775562	-0.01509604
50	0x3cbaf8a2	0.022823635
51	0xbb49f2aa	-0.0030814805
52	0x3d23e437	0.040012565
53	0xbd7cf6db	-0.061758857
54	0xbd45b415	-0.048267443
55	0xbd8dff11	-0.06933416
56	0xbd6e14d4	-0.058125332
57	0x3da960c0	0.08270407
58	0xbcfac04e	-0.030609276
59	0xbd5b255f	-0.053502437
60	0x3dac1f7f	0.08404445
61	0xbd167bf6	-0.036739312
62	0xbda70efe	-0.081571564
63	0xbd8d85cc	-0.06910285
64	0xbd6596b9	-0.056051943
65	0xbd95d8f9	-0.07316775
66	0xbd1817e3	-0.037132155
67	0xbd0bc3e4	-0.034122363
68	0x3d7fa172	0.062409826
69	0xbba53099	-0.0050411937
70	0xbd139b07	-0.036036517
71	0xbc26382d	-0.010145229
72	0xbc086346	-0.00832445
73	0xbca5a8cb	-0.020222088
74	0x3d2acb7d	0.041697968
75	0x3dc97940	0.0983758
76	0xbd4e6b89	-0.050395522
77	0xbdba6b00	-0.0910244
78	0xbc3a0515	-0.011353751
79	0xbd913160	-0.07089496
80	0x3d20c146	0.03924682
81	0x3c9cdbc1	0.019147756
82	0xbd3e6f92	-0.04649312
83	0x3dbd1e64	0.09234312
84	0xbd0c1a37	-0.034204688
85	0xbd0022a5	-0.03128304
86	0xbcb3b314	-0.021935977
87	0xbced3467	-0.028955651
88	0xbd62c46b	-0.0553631
89	0xbd1e43af	-0.038638767
90	0xbbf1e3cd	-0.0073818923
91	0xbc977a11	-0.018490823
92	0x3d153483	0.036427032
93	0x3dbda5ba	0.092601255
94	0x3e0152b4	0.12629205
95	0xbcbbd324	-0.022927828
96	0xbd60ddab	-0.0548989
97	0xbaa97a43	-0.0012930114
98	0xbd3e148d	-0.046406318
99	0x3dcbc874	0.09950343
100	0x3c383c10	0.011244789
101	0x3d5b5786	0.053550266
102	0x3deac73e	0.11463784
103	0xbd5641ab	-0.05230872
104	0x3dbd1b5f	0.09233736
105	0xbd870937	-0.065935545
106	0xbdc00a0e	-0.09376918
107	0xbdbb233b	-0.09137579
108	0xbca661f4	-0.02031038
109	0x3d52f655	0.05150445
110	0x3d99ebee	0.07515703
111	0xbd445e9a	-0.04794178
112	0xbca85d9b	-0.020552447
113	0xbcfc33d3	-0.03078643
114	0xbcbf4293	-0.023347175
115	0xbdaca800	-0.08430481
116	0xbd10756c	-0.035268232
117	0x3db1d700	0.08683586
118	0xbd8aa2bc	-0.0676932
119	0x3db98876	0.09059231
120	0xbb4f98a4	-0.0031676674
121	0xbd484a47	-0.04889896
122	0x3d84b16a	0.064791515
123	0x3dec1f7a	0.11529441
124	0x3c528738	0.0128496215
125	0xbcfe4771	-0.031039925
126	0xbccd3e5e	-0.025054153
127	0xbd8a189a	-0.067429736

linear.weight f4 [10, 2560]
0	0xba068215	-0.0005131078
1	0x3c1fac2f	0.009745642
2	0x3c809c09	0.015699403
3	0xbc43dcb3	-0.011954474
4	0x3bb22d2a	0.005437513
5	0x3ab62d6c	0.0013899035
6	0x3b3d9c95	0.0028932441
7	0xbc813fd0	-0.015777498
8	0x3c2317ab	0.009954373
9	0x39123231	0.00013942343
10	0x3c6efbd6	0.01458641
11	0x3ca305aa	0.019900162
12	0x39afce09	0.0003353211
13	0x3ab44c84	0.0013755714
14	0xbc0aedc5	-0.00847954
15	0x3befddb6	0.007320131
16	0xbbaea10e	-0.005329258
17	0xbc0cd155	-0.0085948305
18	0xbae8c72b	-0.0017759552
19	0x3ca1bca5	0.019743273
20	0x3ca7d3c9	0.02048673
21	0x3bc88665	0.0061195367
22	0x3ccdcdad	0.025122488
23	0x3cb6bf4f	0.02230802
24	0xbb3bae6d	-0.0028637901
25	0xbb5d0b26	-0.0033728569
26	0xbc26cf21	-0.010181219
27	0x3b2d5991	0.002645109
28	0x3bc2cd12	0.0059448564
29	0xbb6e463b	-0.0036357779
30	0x3c9885af	0.018618433
31	0xbac7dc90	-0.0015248228
32	0x3bcc2b61	0.006230757
33	0x3ac72a91	0.0015195181
34	0xbbb25e3c	-0.0054433625
35	0xbc948b8a	-0.018132944
36	0x3c8cc94c	0.01718583
37	0x3ca46799	0.02006893
38	0x3c68778a	0.014188657
39	0xbb59a42d	-0.0033209429
40	0xbbb5eb49	-0.00555173
41	0xbac57248	-0.0015063966
42	0xbc28c27a	-0.010300273
43	0xbc441c9d	-0.011969713
44	0xbc8f961a	-0.017527629
45	0xbc715f71	-0.014732228
46	0xbc0d7b02	-0.008635284
47	0x3caed17d	0.021340126
48	0x3cc94cd3	0.024572765
49	0xbc48a2db	-0.012245859
50	0x3c398476	0.011323085
51	0xbbe69a58	-0.007037442
52	0x3a0a4c94	0.0005275693
53	0x3cbe5f68	0.023238853
54	0x3b885f25	0.0041617327
55	0x3c8e211b	0.01734977
56	0x3c2e7c80	0.0106498
57	0x3c523e63	0.012832257
58	0x3c39eeb4	0.011348415
59	0x3bf7b95e	0.0075599393
60	0x3b509838	0.003182901
61	0xbcd24c06	-0.025671016
62	0xbc34b1f1	-0.011028753
63	0x3c75f78a	0.015012631
64	0x3c8cd0a0	0.017189324
65	0xbc854ad5	-0.016271034
66	0xbd69fb04	-0.057124153
67	0xbdb2d6d8	-0.087323844
68	0x3a42c6eb	0.0007430154
69	0xbdb9167b	-0.09037491
70	0xbd8c371c	-0.06846449
71	0xbb1a6f27	-0.0023564787
72	0xbbed0398	-0.0072330944
73	0xbd801600	-0.06254196
74	0xbd8e42a6	-0.06946306
75	0xbd8c49bf	-0.068500035
76	0xbb918cdd	-0.004441841
77	0xbd0822d0	-0.033236325
78	0xbd3af52d	-0.045643974
79	0xbd8b4d05	-0.068018
80	0x3c8b3457	0.016992731
81	0xbc21d0af	-0.009876414
82	0xbcc687ea	-0.02423473
83	0x3c79cf27	0.015247143
84	0x3c9e6c30	0.019338697
85	0x3c8ae9ff	0.016957281
86	0xbb830f21	-0.0039996062
87	0x3c74096a	0.014894823
88	0xbbbd0799	-0.005768728
89	0x3c51cc17	0.0128050065
90	0xbac54389	-0.0015050034
91	0xbc7e04d3	-0.01550408
92	0xbc78b427	-0.01517967
93	0x3b3896c2	0.002816603
94	0x3ce69d5c	0.028151207
95	0x3b97a2a5	0.004627543
96	0x3b1753fd	0.0023090832
97	0xbc04afe2	-0.008098574
98	0xbc8572ec	-0.01629015
99	0x3c187469	0.009305098
100	0x3c61198f	0.013739004
101	0x3c90260c	0.017596267
102	0xbc25d7bb	-0.010122235
103	0x3bbfa8e0	0.005848989
104	0x3c5ddcb5	0.01354139
105	0xbbcb1b77	-0.0061983424
106	0xbc8d2462	-0.017229263
107	0xbc8e96d5	-0.017405907
108	0xbc3cb81b	-0.011518504
109	0xbc17f62d	-0.0092750015
110	0xbb94be55	-0.004539291
111	0x3baf1ab5	0.00534376
112	0xb9bd250c	-0.0003607649
113	0x3ca669b3	0.020314073
114	0xba44e11e	-0.0007510352
115	0xbbb725db	-0.0055892295
116	0x3c6ab867	0.0143261915
117	0xbc7f940b	-0.015599261
118	0xbcdb0b76	-0.026738863
119	0xbb4f8907	-0.0031667368
120	0x3c8a01c4	0.016846545
121	0x3c31abe8	0.010844208
122	0xbcabcd39	-0.020971881
123	0xbbe7ac82	-0.007070125
124	0xbb44902a	-0.0029993155
125	0x3bcc3c78	0.0062327944
126	0x3a2a5dc0	0.0006498955
127	0x3b747d65	0.0037306186
128	0x3c34c255	0.0110326605
129	0xbc6e8d60	-0.014560074
130	0x3c21ee5d	0.00988349
131	0x3b58a2fd	0.0033056133
132	0x3b987b6d	0.0046533854
133	0xbbd7e370	-0.006588392
134	0x3c16f131	0.009212778
135	0xbd322a1f	-0.0434972
136	0x3bf89ecf	0.007587291
137	0xbbe0e0a1	-0.0068627154
138	0xbd0c6788	-0.034278423
139	0xbd5c6ca2	-0.053814538
140	0x3c0d2815	0.008615513
141	0xbd695d23	-0.056973588
142	0xbd8ad639	-0.06779141
143	0xbd8bfd28	-0.06835395
144	0x3af5dd06	0.0018757887
145	0x3bc7b12e	0.0060941195
146	0x3c17a63b	0.009255941
147	0xbc335b05	-0.010946994
148	0x3c6dc151	0.014511422
149	0xbab60f4a	-0.0013890055
150	0xbbb9f184	-0.005674543
151	0x3ccf9128	0.02533777
152	0x3cb5ee83	0.022208458
153	0xbae88e7f	-0.0017742662
154	0x3c398af9	0.011324638
155	0xbb05494b	-0.0020337875
156	0xbc04c849	-0.008104392
157	0x3a77f88b	0.0009459338
158	0x3ccc6323	0.024949616
159	0x3c5132a0	0.012768418
160	0x3c103978	0.008802764
161	0xbc162d46	-0.0091660675
162	0x3bf82350	0.007572569
163	0x3bff789c	0.00779636
164	0x3c9c29ef	0.019062964
165	0xbb2b9151	-0.0026179145
166	0x3b632457	0.0034659111
167	0xbb83e6e7	-0.0040253284
168	0x3ca4c36b	0.020112714
169	0xbb05d2af	-0.0020419767
170	0x3cd6d0b9	0.026222574
171	0x3ce35ffc	0.02775573
172	0x3b81da11	0.003962763
173	0x3bafe810	0.00536824
174	0xbbfc4716	-0.007698904
175	0xbc205a15	-0.009787102
176	0x3c9041f0	0.017609566
177	0xbc248b90	-0.01004304
178	0x3ba1c091	0.004936286
179	0x3cbfbb3f	0.023404716
180	0x3c6c610d	0.014427436
181	0xbc0980cd	-0.008392525
182	0xbc283bfc	-0.010268208
183	0x3caac408	0.020845428
184	0x3a791054	0.0009501029
185	0x3c1dc58e	0.00962962
186	0xbbc46c19	-0.0059943316
187	0x3bff3823	0.0077886744
188	0xbc19e9da	-0.009394133
189	0x3c728457	0.01480206
190	0xbc0dcb4f	-0.00865443
191	0x3c4c8751	0.012483434
192	0x3ca139d3	0.019680893
193	0xbbebef98	-0.0072001927
194	0xbc414ea3	-0.011798534
195	0xbba97604	-0.0051715393
196	0x3c8b8d4a	0.017035145
197	0x3b9adf01	0.004726291
198	0x3c198401	0.009369851
199	0x3cadb059	0.021202253
200	0x3ad08266	0.0015908002
201	0xbc6270b5	-0.013820817
202	0x3c63c017	0.013900778
203	0xbc92f0c3	-0.01793707
204	0xbbab0d05	-0.005220058
205	0x3b867707	0.0041035446
206	0xbbf1afbb	-0.007375685
207	0xbc54edee	-0.01299618
208	0x3ccb421f	0.024811802
209	0xbbab60e8	-0.005230058
210	0x3c5120af	0.01276414
211	0xbc4534d7	-0.012036524
212	0xbbb44b20	-0.0055021197
213	0x3bdbcd4b	0.0067078224
214	0xba090f19	-0.0005228385
215	0xbcd90e57	-0.026496096
216	0xbaf12edb	-0.0018400805
217	0x3c9dd0b1	0.01926455
218	0x3ca98d8f	0.020697383
219	0xbbee1556	-0.007265727
220	0x3b7a6a3a	0.0038210289
221	0xbb6a7924	-0.0035777772
222	0x3b88cc8a	0.0041747736
223	0xbc4982ab	-0.01229922
224	0xbb3b8245	-0.0028611582
225	0x3c160e61	0.009158702
226	0xbc2880aa	-0.010284582
227	0xbc2266c4	-0.009912197
228	0xbaac9886	-0.0013168014
229	0x3b3d578a	0.0028891289
230	0x3c47b78c	0.012189757
231	0x3c9bd24b	0.019021174
232	0x3c86e049	0.01646437
233	0xbdb6afa7	-0.08920222
234	0xbc9d721d	-0.019219453
235	0xbc092404	-0.008370403
236	0x3ba307f1	0.004975312
237	0xbd0abc1e	-0.03387081
238	0xbd56b218	-0.052415937
239	0xbd1e167f	-0.038595673
240	0xbc730cd0	-0.014834598
241	0x3c545170	0.012958869
242	0x3ab1f3b0	0.0013576653
243	0x3c8eccce	0.017431643
244	0xbcae6478	-0.021288142
245	0x3c5ae17f	0.0133594265
246	0xbc81e388	-0.015855566
247	0x3d028b96	0.0318714
248	0xbc07677b	-0.008264418
249	0x3c167867	0.00918398
250	0x3cc65dcf	0.024214653
251	0xbbde22f6	-0.00677907
252	0x3c88e2ac	0.016709648
253	0x3c15eb56	0.009150347
254	0x3c99b554	0.018763222
255	0xba5c1d25	-0.0008396677

linear.bias f4 [10]
0	0xbc9b0d8e	-0.018927362
1	0x3db6da63	0.08928373
2	0xbd451337	-0.048114028
3	0xbc6fbeec	-0.014632922
4	0x3c1fff5c	0.009765472
5	0xbce07589	-0.027399795
6	0xbd26dfb0	-0.04074067
7	0xbd2989a6	-0.041391037
8	0xbcdcba49	-0.026944296
9	0xbd0ab6e6	-0.03386583
